Model: "sequential"
_________________________________________________________________
Layer (type)                 Output Shape              Param #
=================================================================
conv2d (Conv2D)              (None, 126, 171, 32)      320
_________________________________________________________________
conv2d_1 (Conv2D)            (None, 124, 169, 64)      18496
_________________________________________________________________
max_pooling2d (MaxPooling2D) (None, 62, 84, 64)        0
_________________________________________________________________
dropout (Dropout)            (None, 62, 84, 64)        0
_________________________________________________________________
flatten (Flatten)            (None, 333312)            0
_________________________________________________________________
dense (Dense)                (None, 128)               42664064
_________________________________________________________________
dropout_1 (Dropout)          (None, 128)               0
_________________________________________________________________
dense_1 (Dense)              (None, 11)                1419
=================================================================

tiny (70)

Total params: 42,684,299
Trainable params: 42,684,299
Non-trainable params: 0
_________________________________________________________________
Epoch 1/20
2020-06-25 21:42:48.736431: I tensorflow/stream_executor/platform/default/dso_loader.cc:44] Successfully opened dynamic library cublas64_10.dll
2020-06-25 21:42:49.073393: I tensorflow/stream_executor/platform/default/dso_loader.cc:44] Successfully opened dynamic library cudnn64_7.dll
…
